multi_agent_dqn.pth (torch, 151420 bytes, 14 tensors)

fc1.weight f4 [128, 7]
000000 ab 58 cd 3e 0a 05 05 3f 4f 7c 8a 3e 85 d6 95 3c
       0.4010671 0.51960814 0.27047965 0.018290767
000010 ca 2a 29 3e f2 32 aa be e3 85 a0 3e ab df 12 3e
       0.16520229 -0.33241993 0.31352147 0.14343135
000020 4f d0 d9 3e ac ac 02 3f 40 28 d1 3e 01 bf b6 be
       0.4254174 0.51044726 0.4085102 -0.356926
000030 a6 2c 14 3e 5d 45 ff 3d 9f 17 4c 3d 83 e7 6c 3e
       0.14470157 0.12464402 0.049827214 0.2313519
000040 aa c7 c4 3e 40 ce dd 3c 99 5c a1 bd 4d 28 45 bc
       0.38433582 0.027075887 -0.0787899 -0.012033534
000050 5f 17 96 3e da 0e c2 3e ae 1b 6b bd 2e 06 d9 bd
       0.29314706 0.37901956 -0.057399444 -0.10596882
000060 69 6a a0 be 72 fb 7e 3e 01 30 a7 3e ca ad f0 3d
       -0.31331185 0.24900606 0.32653812 0.11751898
000070 80 89 cd 3e 55 5c d3 3e 3e c0 01 3f 18 20 e2 bd
       0.40143967 0.4128138 0.50683963 -0.11041278
000080 44 4e 96 3e 43 f8 7e 3e 7b b4 f7 bd b6 56 87 be
       0.29356587 0.24899392 -0.12094971 -0.26433343
000090 91 b9 64 be dd 73 a4 3e 65 ed 1b bc b3 98 28 be
       -0.22336413 0.32119647 -0.0095170485 -0.164645
0000a0 c3 ee 4d 3e a1 4a 6c 3e e1 82 57 3e 3f f0 f2 3e
       0.20110612 0.23075344 0.2104602 0.47448918
0000b0 e3 87 6c 3e 7b 13 a0 be c3 88 a7 3d 4e 38 59 bd
       0.23098712 -0.31264862 0.08180382 -0.053032212
0000c0 a5 0e 6d 3d 84 c4 63 3e 3d 4e 08 3e 68 cc b3 be
       0.057875294 0.22242934 0.13311096 -0.35116887
0000d0 6c 1b 34 3d 08 8f b2 be 55 11 be 3e 52 bf f0 3d
       0.043971464 -0.3487475 0.37122598 0.117552415
0000e0 b5 70 db 3e 40 73 3d 3e 11 d2 b3 3e fe d3 0c bd
       0.42859426 0.18500996 0.35121205 -0.03438186
0000f0 42 a6 a0 be 42 a5 4e 3d 4d 14 9c be b8 6d ae 3e
       -0.31376845 0.05045057 -0.30484238 0.34068084
000100 15 66 98 3e fc 76 66 3e a5 dc a5 3c a3 38 1e be
       0.29765382 0.22506326 0.020246813 -0.15451293
000110 d2 7d cc 3e 57 28 89 bd 2d 41 f0 bd 05 33 15 be
       0.39939743 -0.06697147 -0.11731181 -0.14570244
000120 f6 12 00 be 87 f6 81 3e 91 fb 4f be 83 4e e6 bd
       -0.12507233 0.25383398 -0.20310809 -0.11245444
000130 26 82 3e 3e ad 62 c5 3e f0 a1 90 3e 18 68 e7 3e
       0.18604335 0.38551846 0.28248549 0.45196605
000140 63 3a 1b be cb 21 9f 3e 47 ca 81 be 95 95 80 bd
       -0.15158992 0.3108047 -0.25349638 -0.062785305
000150 eb 6d 70 3d e6 57 42 3e 6b 81 75 3e 9e c7 86 3d
       0.058698576 0.18978843 0.2397515 0.06581043
000160 51 0d b5 3c 92 9a 89 3e 07 b7 55 3e dd 68 07 3c
       0.022101076 0.2687574 0.208706 0.008264747
000170 e3 c0 01 bf 83 22 01 3f 5e cb 0b be 1c 6d 0f be
       -0.50684947 0.50443286 -0.13651797 -0.14006466
000180 e4 d2 46 3e 32 d4 aa 3e 29 ca 55 be b5 c2 1f be
       0.19416386 0.33365017 -0.20877899 -0.15601619
000190 64 ca a9 3e a0 b0 88 3c 99 5c 29 be 9e 54 95 3e
       0.33162224 0.016685784 -0.1653923 0.2916612
0001a0 f0 a9 71 3e bf 37 8f 3e a6 b7 b7 bd 87 24 5e be
       0.23599982 0.27972218 -0.08970575 -0.21693622
0001b0 16 9e a3 bb 73 b1 bd 3d a4 83 70 3e ea 41 21 3e
       -0.0049932105 0.092623614 0.23487717 0.157478
0001c0 9a 84 cb 3e c5 c4 a1 3e a4 01 4c be 9b 10 3a be
       0.39749604 0.31595436 -0.19922501 -0.18170397
0001d0 77 03 bb 3e 96 f0 c1 3e 6d 44 af bd 1e e8 f8 be
       0.3652608 0.37878865 -0.08557973 -0.4861459
0001e0 8a 5d 86 3d c9 57 e4 3d d5 c7 d2 3c 5b bf c2 3e
       0.0656081 0.11149556 0.025730053 0.38036618
0001f0 66 a7 90 3e 08 f9 df 3e c9 fb 86 3e aa 5a d7 be
       0.28252715 0.43744683 0.26363972 -0.4206136
000200 62 89 b0 3e d9 54 39 be 30 48 c1 3e 43 1e 2c 3c
       0.34479815 -0.18098773 0.37750387 0.010505262
000210 38 3a 52 be d0 cb cc 3e bc c6 d9 3e b9 79 80 3d
       -0.20530021 0.39999247 0.42534435 0.06273217
000220 6e 28 cf 3e 16 21 91 be 3c 04 06 3e ea e1 2b 3e
       0.40460533 -0.28345555 0.13087553 0.16785398
000230 0b f6 be bb e4 b5 07 3e 1d da 0a bf 1a 44 e8 3e
       -0.0058276705 0.1325298 -0.54239064 0.45364457
000240 9f 2a 3b 3c c8 f6 65 3e 2b 86 4e be 1b f8 05 3f
       0.011423736 0.22457421 -0.20168369 0.52331704
000250 48 87 12 be 52 e7 a3 3e b5 66 26 be 35 f5 92 bd
       -0.14309418 0.3201242 -0.16250117 -0.07175676
000260 f5 52 e1 3b 48 ea 46 3e 3c e2 2f be fe 98 88 bb
       0.0068763443 0.19425309 -0.17176145 -0.0041686287
000270 14 53 61 3e d9 0e 37 bd 88 17 8a be 4a 80 da 3e
       0.22004348 -0.044691894 -0.26971078 0.42676002
000280 f2 36 21 be 15 3a 1d bd 91 94 ca 3e 5d ea 04 be
       -0.15743616 -0.03838547 0.39566472 -0.12980027
000290 e8 3d ac 3e 14 3a 89 be d6 90 14 bd b9 1b 66 be
       0.3364098 -0.26802123 -0.03627094 -0.22471513
0002a0 93 0e 8f 3e 40 89 7d bd 26 07 db 3d 55 6d d4 3e
       0.27940807 -0.06189847 0.10694723 0.41489664
0002b0 be eb 49 be 31 4a dc 3e f6 80 5f be e2 ec c2 be
       -0.19718835 0.43025354 -0.21826538 -0.38071352
0002c0 dc 45 a1 bd 18 ad f3 3e 66 51 96 bc 6e 0e 8a be
       -0.07874653 0.47592998 -0.01834936 -0.26964134
0002d0 b4 89 98 3d cc d0 cd 3e 07 76 8a 3e f6 af 9d 3c
       0.0744814 0.40198362 0.27043173 0.019248944
0002e0 7e cb 50 be bf 43 aa be 7d 73 0a 3c 7a c5 af be
       -0.20390126 -0.3325481 0.008450386 -0.3433035
0002f0 50 19 98 be 73 9b 63 be 8e cc 17 bb d1 fe e0 3d
       -0.29706812 -0.22227268 -0.0023162696 0.10986102
000300 e5 94 9d 3e d9 5a 10 3e 9f 18 4a 3d 8c 92 00 be
       0.3077766 0.14097156 0.049339887 -0.12555903
000310 3b 00 6d 3d 32 ec 8d bc 0f 59 29 bc 49 95 8a be
       0.057861548 -0.01732454 -0.010336175 -0.2706702
000320 0b 27 9c be 28 8d 93 be 5a 58 03 be 7e 13 20 be
       -0.30498537 -0.2881863 -0.12826672 -0.15632436
000330 a6 e2 e0 3e fd 75 ab be 67 16 95 3e cf 25 43 3e
       0.4392292 -0.33488455 0.29118654 0.19057392
000340 51 48 a9 be fd e6 58 be 89 ef 5e be 0f 00 b1 bd
       -0.33062986 -0.21181865 -0.21771063 -0.08642589
000350 94 9a 75 3d 37 55 90 3d f1 e4 ee 3d c9 04 6c 3d
       0.05996187 0.070475034 0.11664761 0.05762175
000360 06 d4 0b 3d b1 71 98 3e 12 c6 ef 3e a5 4e af 3d
       0.03413775 0.2977424 0.46830803 0.08559922
000370 5e b3 9a 3d 60 d4 a5 3e 05 57 b5 be 04 6f 81 3d
       0.07553743 0.32388592 -0.35417953 0.06320003
000380 59 dd 07 be 25 2c 81 3e 6a 0e e8 3e 7d b5 98 3e
       -0.13268031 0.25228992 0.45323497 0.29825965
000390 ab 6a 39 bd b7 5b 68 bd dc 04 54 be eb f5 f0 bd
       -0.045267742 -0.05672809 -0.20704979 -0.11765655
0003a0 b3 dd 86 3e 3a 73 1f 3e ab 0b 8e 3d d2 1d 80 3e
       0.26341018 0.15571299 0.06935819 0.2502275
0003b0 f6 9a a3 be 8f ba d5 3e 9c a0 1e 3e dd 9a a4 3e
       -0.31954163 0.41743895 0.15490955 0.321494
0003c0 f4 ee ad 3e 7b 04 3d be 2c e9 a5 3e f6 27 06 3e
       0.3397137 -0.1845874 0.3240446 0.13101181
0003d0 73 ae d1 3e cb a1 a2 3d 98 19 f5 3e 73 c7 85 3e
       0.40953407 0.07941016 0.4787109 0.2612873
0003e0 6e 2f f0 3e 0a fc 0b be cb 82 f1 3d c3 ff ac 3d
       0.46911186 -0.13670364 0.11792525 0.0844722
0003f0 dd 4d ec 3e 4c a6 14 3e 04 80 9c 3e ab 4f a8 3d
       0.46153155 0.14516562 0.30566418 0.082183205

fc1.bias f4 [128]
000000 36 bf 1c 3f 57 fa 22 be d5 f8 eb 3d b6 d0 be be
       0.61229265 -0.1591581 0.1152207 -0.3726861
000010 9c 70 1a be 3d 1c 1e 3f 12 63 4b be 03 f8 9a 3e
       -0.1508202 0.6176184 -0.19862011 0.30267343
000020 71 fb 3d be fc c7 7a be 90 a5 02 3f 5f db ac 3d
       -0.18552949 -0.2449035 0.5103388 0.08440279
000030 55 3e e8 3e 7f 6e 2a 3c c3 7e 91 3d 2e 6a 1d 3f
       0.45360056 0.010402321 0.07104256 0.6149014
000040 e1 14 d0 3e f9 0f 9a be 28 4f 86 3e 1c 87 b1 be
       0.4064093 -0.3009031 0.26232266 -0.34673393
000050 90 c6 2e be ea 37 52 be 57 cd dc 3d 5e c4 3b 3e
       -0.17067933 -0.20529142 0.10781353 0.18336627
000060 f8 18 7b 3d 09 d8 b7 bd 60 c1 f5 3e 91 cc 06 3f
       0.06130311 -0.08976752 0.47999096 0.52655894
000070 87 50 c8 3e e4 29 ca 3c 6a cd 7a be c4 5e 40 be
       0.39123937 0.024678178 -0.24492422 -0.1878615
000080 3f 38 61 3e a3 2a e1 3d fc 60 42 be f3 27 2f 3f
       0.21994112 0.109944604 -0.18982309 0.6842033
000090 28 ea c0 3e df 12 cd 3e 3a ab 7e 3e 2f 05 22 3f
       0.37678647 0.4005346 0.24870005 0.6328916
0000a0 31 2e fc 3e 3e 30 b7 3e 9b ca 5b 3e 37 07 64 3c
       0.4925399 0.35778993 0.21464007 0.013917736
0000b0 bb b8 cc bd 92 af 1a be d9 cf b9 bc fe a6 8e 3e
       -0.09996172 -0.15106037 -0.022682117 0.2786178
0000c0 6f 93 29 3f a0 44 be 3d 3e 10 df bd b5 02 31 3e
       0.6624059 0.09290433 -0.1089177 0.17286189
0000d0 6c b2 49 3f 09 b0 6d bd ba 08 93 bd d1 51 1d be
       0.78787875 -0.05802921 -0.07179399 -0.15363242
0000e0 06 ab 88 3e ee c0 7e bd 55 27 9d bd a1 d3 a8 be
       0.2669298 -0.06219571 -0.076735176 -0.3297396
0000f0 63 e0 fa 3e 68 ed 24 3f 29 bc d3 3c 7c c9 0d 3f
       0.48999318 0.64424753 0.025846558 0.55385566
000100 d6 a8 02 3f 15 88 15 3f 37 ee 33 3e 03 b6 77 be
       0.51038873 0.5841077 0.1757134 -0.24190526
000110 6b 70 59 be e6 74 cf be 08 8e b7 bd eb ab c6 3e
       -0.2123429 -0.40518874 -0.08962637 0.38803038
000120 eb 65 1c bd ef bc a2 be 51 1a 38 3f 7a 6d 49 3e
       -0.038183134 -0.3178477 0.71915156 0.19670668
000130 52 f0 ac 3d 70 46 17 3f a1 a1 3a bd be 5a ba 3e
       0.08444275 0.59091854 -0.045564298 0.36397356
000140 d8 22 53 3e 04 d5 14 bb c8 97 8b be 12 ab eb bd
       0.2061876 -0.0022709975 -0.27264237 -0.115072384
000150 0b 50 1b 3e f8 13 1b 3f c1 d6 5a 3e 6c f9 72 bd
       0.15167253 0.60577345 0.21370985 -0.0593199
000160 63 2a 2a 3e 59 2c 0b be 10 19 d7 3e ba 95 e3 bc
       0.16617732 -0.13591136 0.4201131 -0.027781356
000170 7c ea 8d be 32 92 c0 3e 95 71 ef bd e0 be 1f be
       -0.2771796 0.37611538 -0.11691586 -0.15600157
000180 c8 fc ac 3e d1 9d 2d 3d ae 07 a6 bd cd c0 df bd
       0.33786607 0.042386834 -0.081069335 -0.10925446
000190 da 66 2f bd a9 63 bd 3e 9a c1 c2 3d 3e e9 16 3d
       -0.042822696 0.36990097 0.09509583 0.03684353
0001a0 a0 7e 2e be 8a 0d aa 3d 17 16 cf 3e e8 ec 72 bd
       -0.17040491 0.083033636 0.4044654 -0.059307963
0001b0 1f 7c a0 bd 16 7e e1 3e bb f7 2a 3f 22 3c ab 3e
       -0.07836174 0.44041508 0.66784257 0.33444315
0001c0 25 d3 89 bd 85 34 91 3c f3 94 24 3f e9 63 23 3e
       -0.06729726 0.017725239 0.6428978 0.15956081
0001d0 d8 96 8a be d3 d7 2c 3e 4d ab 66 be c9 bd 4a 3e
       -0.2706821 0.16879205 -0.22526284 0.1979896
0001e0 37 16 de 3e 4d 61 a9 3e 4d 7d 22 3e 93 5f 11 be
       0.43376324 0.33082047 0.15868111 -0.14196615
0001f0 22 9a a2 bd 20 da 75 be 9a 5f e6 bd 02 71 97 3d
       -0.07939555 -0.2400899 -0.11248703 0.073946014

fc2.weight f4 [128, 128]
000000 db 0b bd 3d 8e 04 8b 3c 80 33 3e 3e 21 9d fa 3d
       0.09230777 0.016969945 0.18574333 0.12237001
000010 df 1a 42 3e dd c9 c1 3d 5f 57 5c 3e 82 d6 85 bd
       0.18955563 0.094623305 0.21517704 -0.06535055
000020 66 83 2a 3e a1 e5 d2 3d d2 4f a8 3d 0b 70 54 3e
       0.16651687 0.102977045 0.082183495 0.20745866
000030 f3 e4 b9 3d ee 34 93 3e 40 98 97 3d 1e 33 ca bc
       0.09076872 0.2875132 0.07402086 -0.024682578
000040 4e 49 0d 3e ec 7a f7 3d 0b 8f 1a 3e fe 97 47 3d
       0.13797495 0.12083992 0.15093629 0.048728935
000050 d4 f3 d0 bc e2 78 33 3e a8 10 80 3d 29 1e d8 3d
       -0.025506891 0.17526582 0.06253177 0.105526276
000060 a1 1d 89 3c b2 01 54 3e fa be 23 3e dd ef 4c 3d
       0.016737761 0.20703772 0.1599082 0.05003344
000070 5b 40 e9 3d 33 af 20 3a 3b 9c ef 3c a5 88 d9 3d
       0.11389228 0.00061296223 0.029249301 0.10621766
000080 14 41 77 3d d1 5e ef 3d e0 06 30 3e 10 b9 63 3c
       0.060364798 0.11688007 0.17190123 0.013899103
000090 99 a0 bd 3d 5d fc 61 be 35 5c 33 3e 88 92 96 3d
       0.09259147 -0.22068925 0.17515643 0.07352167
0000a0 fe 9d 92 3d 6d 3a 10 3d 5b da 3f 3e 26 c0 b1 bb
       0.07159041 0.03521197 0.1873564 -0.005424517
0000b0 f2 4b 23 3e 37 82 12 3e c1 12 2c 3e 71 99 5f 3e
       0.1594694 0.14307486 0.16804029 0.21835877
0000c0 51 1b 05 3e e2 da 00 3e 18 57 03 3e 9e eb 91 3d
       0.12998702 0.12583497 0.12826192 0.071250185
0000d0 40 15 95 3d ee b4 2d be c7 2e 04 3e 24 04 11 3e
       0.07279444 -0.1696355 0.12908469 0.14161736
0000e0 f7 27 cb 3c 09 bf 21 3e a0 67 34 3d 4a b4 c2 3d
       0.02479933 0.1579553 0.044044137 0.09507044
0000f0 55 1b cf 3d dc 72 29 3e c8 2e 72 3e a6 cb 24 3e
       0.10112635 0.16547722 0.23650658 0.1609331
000100 83 c8 65 3d dd f3 f0 3d bb d6 67 bd 34 61 c9 bd
       0.056099426 0.11765263 -0.056601267 -0.09832993
000110 6b 24 0b be 71 ff f3 3d f7 22 a4 bd d5 0f 63 3e
       -0.13588111 0.11913956 -0.080144815 0.22174008
000120 01 8f 04 3e 9a f3 32 3e 54 5f 2f 3e 48 6d 14 3e
       0.12945177 0.17475739 0.17126209 0.14494812
000130 39 9f f8 3b d1 81 aa 3d 10 29 5e 3e b6 f7 2f be
       0.00758734 0.08325542 0.21695352 -0.17184338
000140 a3 42 61 3d 18 7f 2c 3d 96 03 e4 3d e3 8e f9 3d
       0.05499519 0.042113394 0.111334965 0.121854566
000150 8d 10 03 3e 87 cd 4c 3e 16 12 aa bd a5 06 59 3d
       0.12799282 0.20000277 -0.08304231 0.052984852
000160 25 1c 2d 3e c7 13 47 be 71 12 08 3e a6 ae a8 bd
       0.16905268 -0.19441138 0.13288285 -0.082364365
000170 6f a7 8e 3d e4 62 24 3d 6a 1b 04 3e b1 53 94 bd
       0.06965529 0.040133372 0.12901083 -0.07242525
000180 f4 36 8a 3c 99 7a 86 3e 41 e7 bc 3c 4f 3c 62 be
       0.016871907 0.2626541 0.02305949 -0.22093318
000190 f4 4d 68 3e a9 aa 1f 3d 58 7e ff 3d ce 19 06 3d
       0.22685987 0.038981114 0.1247527 0.032739453
0001a0 0c 76 e7 bc a5 aa bd 3d 84 4c 05 3e b2 49 37 3e
       -0.028254531 0.092610635 0.1301747 0.17899206
0001b0 83 63 7d 3e 84 bc 99 3d 33 d0 d0 3c 31 b3 6a 3d
       0.24744992 0.075066596 0.025489902 0.057299796
0001c0 3d 9d 55 3e 97 b7 c8 3d 8e 91 be 3d 48 d7 4e 3e
       0.20860763 0.09800642 0.09305106 0.20199311
0001d0 54 15 1a 3e dd e1 d5 3e 9b ec 02 3d 64 74 4a 3e
       0.15047199 0.41773883 0.031963926 0.19770962
0001e0 76 49 81 3d e7 c1 2f 3e 5d 51 16 3e c8 ed e0 bc
       0.0631284 0.17163812 0.14679475 -0.027457133
0001f0 41 29 48 bd da c8 a4 3d 8b b0 21 3c 94 11 ed 3d
       -0.048867468 0.08046122 0.009868751 0.115756184
000200 c3 59 90 3d f1 a0 30 3e ed 91 1e 3e 7e 4a fe 3c
       0.07048371 0.17248894 0.15485354 0.03104138
000210 73 27 24 3e a3 d5 c8 3d 4f cf 19 3e 0c e8 0a be
       0.16030674 0.09806373 0.15020488 -0.13565081
000220 46 23 af 3c 96 a8 4e 3e 26 fd fe bd 07 b4 cf 3d
       0.021379124 0.20181498 -0.12450628 0.10141759
000230 26 00 e2 3d 0a 53 2f 3e 09 2b 01 3e 1b 56 36 3d
       0.110351846 0.1712152 0.12614073 0.04451571
000240 7a 3b 4c bc d0 8a 09 3e 77 09 35 3d 14 5a 2c 3e
       -0.012465352 0.13431859 0.04419848 0.16831237
000250 0b 89 d9 bb 32 1f d1 3d 78 d3 f7 3d 6e e4 d4 3c
       -0.0066386512 0.10211028 0.12100881 0.02598783
000260 96 19 1b bc 4e dc c8 3d ee 8a 95 3c 84 81 0e 3d
       -0.009466549 0.09807645 0.018254723 0.034791484
000270 d8 10 e5 3d f3 17 f3 bd 85 80 0a bd b9 41 30 3e
       0.11184853 -0.11869802 -0.033813972 0.17212571
000280 a6 df 23 3e 06 7f ac 3d 23 f1 b3 3d 87 73 d6 3c
       0.16003284 0.08422665 0.087862276 0.026178135
000290 2e 43 99 3d 6e e2 a9 be c6 87 a1 3d 0b ef 75 3d
       0.07483517 -0.33180565 0.07887225 0.060042422
0002a0 c6 af 16 3e ce df 14 3e a1 f5 91 3d 35 df ce 3d
       0.1471549 0.145385 0.07126928 0.10101167
0002b0 08 19 9c 3c 97 bf 10 3e c2 2e 1a 3e 1b 49 92 3e
       0.019054905 0.14135586 0.15056899 0.285714
0002c0 62 cd 08 3e 1c 99 25 3e 6d 02 51 3e 12 70 81 3d
       0.13359597 0.16171688 0.20411082 0.06320204
0002d0 67 7c b6 3d cd c3 a0 bd 4a 1a 23 3e 98 65 df 3d
       0.089104466 -0.07849846 0.15927997 0.10908049
0002e0 30 e6 c9 3c 03 8e 81 3d fe 9b 83 3c 25 fa c1 3d
       0.024645895 0.06325915 0.016065594 0.094715394
0002f0 a4 01 c6 3d 99 3b ae 3d 1d 75 c7 3d 08 e3 8f 3d
       0.09668282 0.08507461 0.097391345 0.07025725
000300 0c 87 6f bc b7 89 42 bd 71 3d 17 be 89 b7 4d bc
       -0.0146196 -0.047494616 -0.14769532 -0.012555965
000310 85 e9 02 be e2 d4 e4 3d 0f 62 00 3c 96 a1 d1 3d
       -0.12784393 0.11173417 0.007835879 0.10235898
000320 50 20 1f 3d 32 85 b5 3d 47 15 a0 3d 12 b0 60 3e
       0.038849175 0.088632956 0.07816558 0.21942165
000330 1f c1 17 3b 63 db 2e 3d 36 27 40 3e 0c 0e 92 be
       0.002315588 0.042689692 0.18764958 -0.28526342
000340 63 e6 15 be 78 8f f8 3c c2 59 4a 3e 27 32 09 3e
       -0.14638667 0.030341849 0.19760802 0.13398038
000350 17 55 59 3e 75 6f c3 bc 90 3f 65 bc e7 9b 3a bc
       0.21223865 -0.023856858 -0.013992205 -0.011389709
000360 cd e5 1d 3d 9f e8 54 be 9e 7e bf 3d 1c 78 31 3d
       0.038549233 -0.20791863 0.09350322 0.043327436
000370 4d 51 56 3d 98 56 93 bd a0 44 40 3e d0 04 d2 3d
       0.05232363 -0.07194251 0.18776178 0.10254824
000380 10 2a c1 3d 72 91 88 3e 06 cd bf bd d1 55 0a be
       0.09431851 0.26673466 -0.09365277 -0.13509299
000390 4e 9e d3 3d 04 4f c9 3b 6a 8f 2c 3e 22 80 0d 3e
       0.103329286 0.0061434526 0.16851583 0.1381841
0003a0 88 74 3f 3c dd 83 2f 3d 62 dd 79 3d 91 c5 27 3e
       0.011685498 0.042850364 0.061002143 0.1638396
0003b0 f7 d2 64 3e ce 7c 46 bb 10 40 bf bc cd 48 70 3d
       0.22346102 -0.0030286792 -0.023345977 0.05866318
0003c0 21 44 46 3e e0 18 3b 3d 75 2d 94 3d 1b 94 dc 3d
       0.19361927 0.04567802 0.07235233 0.107704364
0003d0 d2 8a e2 3d 25 7d a4 3e 0f 7d 82 bd c6 49 1d 3e
       0.11061634 0.32126728 -0.06371509 0.15360174
0003e0 ed a8 9f 3d 62 19 e9 3d 5d f7 59 3d aa 29 5f 3d
       0.07795892 0.113817945 0.05321442 0.054483093
0003f0 f1 d7 38 be 3e 35 32 3e a6 ba 5a 3d 80 d3 06 3e
       -0.18051125 0.17403123 0.053400658 0.13166618

fc2.bias f4 [128]
000000 b6 8a 1a 3e 09 1d 0b 3c 54 82 b2 bd d2 e7 83 bd
       0.15091977 0.008490809 -0.08716264 -0.064407006
000010 aa ac e4 bc 78 4f 5d bd 7d fb 06 bd d6 68 e8 bb
       -0.027914364 -0.054030865 -0.03295468 -0.0070925755
000020 14 25 23 bc 95 7a c6 bd 02 93 a1 bb d5 e7 42 3e
       -0.009957571 -0.096913494 -0.004930855 0.1903375
000030 af c2 92 3e 48 91 df bd bb f8 d2 bd 6b f4 bf bd
       0.28664157 -0.10916382 -0.10301348 -0.09372791
000040 20 bb 45 3d d3 77 71 bd 35 1d ac bd 8b 07 95 bd
       0.04827416 -0.058952164 -0.08404008 -0.07276829
000050 02 06 ba bd 5d 64 9a bd 5d 36 fc bd 34 05 02 3d
       -0.09083177 -0.07538674 -0.123150565 0.031743243
000060 01 a6 e3 bd f6 08 12 be 47 ad 20 3d 47 7a 48 bd
       -0.11115647 -0.14261231 0.03922775 -0.048944738
000070 04 26 8e 3b b1 eb 6c 3d a0 02 b8 3c 10 b6 bc 3d
       0.004338028 0.05784196 0.02246219 0.09214413
000080 83 e4 fb bc 7f ea d4 bd 98 0c 8a 3b b1 45 7b 3e
       -0.030748611 -0.10396289 0.004212927 0.24538304
000090 9b 35 16 be 53 fe 05 bd c3 54 70 bd af 80 dc bd
       -0.14668886 -0.032713246 -0.058674585 -0.10766732
0000a0 91 b5 ea bd 23 67 78 3e 09 b5 b3 bd d0 31 c1 bb
       -0.11460412 0.24258094 -0.08774764 -0.0058958307
0000b0 68 0c aa 3c 3a e2 30 bd d9 5e a5 3d fc d3 48 3c
       0.020757869 -0.043184496 0.080747314 0.012257572
0000c0 50 9f b0 3b d8 c3 08 bd ee 12 89 3e 8a 65 95 3d
       0.0053900853 -0.033389896 0.26772255 0.07294758
0000d0 ab af 2a 3c 4d 49 d6 bd 8b 20 ed bd 9a 8b 9c bd
       0.010417859 -0.104632 -0.11578473 -0.076438144
0000e0 c2 da 8f 3e b4 25 29 bd e5 fc f3 bd 52 39 1d 3e
       0.28096586 -0.041295722 -0.1191347 0.15353897
0000f0 94 8a 4e bd ed d2 9a bd 19 34 35 3d f4 0f e3 3d
       -0.050425127 -0.07559762 0.044239137 0.11087027
000100 7e 40 97 3e 35 1a bd 3d 3d fa 53 3d 9a a5 81 3e
       0.2954139 0.09233514 0.051752318 0.25321656
000110 b5 a7 f8 3c 8e c6 b7 bc fd d4 01 3c 1d 4e b8 bd
       0.030353406 -0.022433545 0.0079243155 -0.08999274
000120 32 c3 95 3e 16 94 73 bd ad a7 99 3c 15 e3 b4 3c
       0.29250485 -0.059467398 0.018756712 0.022080937
000130 8e 9d 0d bd f6 63 83 bd 8a cd 2a 3c f6 85 aa bd
       -0.034574084 -0.064155504 0.010424981 -0.08326332
000140 63 e9 0e 3e 6a 7c c7 3d dd 30 8a bd 6e 9c f0 bc
       0.13956217 0.09740527 -0.06747601 -0.029371466
000150 c6 d9 98 3c 57 ed 4f 3c 71 6e ec bc c4 b2 d0 bd
       0.01865853 0.012690864 -0.028861256 -0.10190347
000160 92 c0 9b bd 99 bc 80 3e cf d6 5c 3a c1 77 f2 39
       -0.07605089 0.2514389 0.0008424343 0.0004624706
000170 99 c2 47 bd 35 0e 9c 3c ba 19 14 bc 9d d8 ab bd
       -0.048769567 0.019049743 -0.009039337 -0.08390925
000180 5d 97 fd 3c 3f 0c b3 3b d3 a4 14 be e5 27 27 be
       0.030955965 0.0054641063 -0.14516 -0.16323812
000190 17 17 ed bc 33 82 fa 3c e4 7e 18 3d 1e ef e5 bd
       -0.028941674 0.030579662 0.037230387 -0.112272486
0001a0 bb 16 cc 3d 8e 89 67 bd 78 4a b3 3d bc ce 40 3d
       0.09965273 -0.056527667 0.08754438 0.047072157
0001b0 41 14 9d 3c 4a c8 60 3e a5 c3 92 bd e9 1c 7d 3d
       0.019174697 0.21951404 -0.071662225 0.06179515
0001c0 c1 e0 9f 3c 73 e2 83 bd 3c 47 44 3e dd 9e d9 bd
       0.01951635 -0.06439676 0.19167799 -0.10626004
0001d0 62 47 4e bd f0 55 84 3e 08 9e 0b 3e f2 e9 ac bc
       -0.050361045 0.25846815 0.13634503 -0.021107648
0001e0 46 1e 3b bd 6b db 19 3e bf 5a bd bd f0 9d 0e bd
       -0.045683168 0.15025108 -0.09245824 -0.03481859
0001f0 a0 ae 75 3e 3b 9f 34 bd d5 7c ef 3b a2 bb 1d bd
       0.23992395 -0.044097167 0.0073085823 -0.03850902

fc3.weight f4 [128, 128]
000000 c1 f8 97 bd ca ea 8d bc e1 da 77 3d d3 18 ad 3d
       -0.07420493 -0.01732387 0.060511474 0.084520005
000010 aa 1e 08 3d e0 74 92 3d b3 85 fa 3d 64 a3 33 3d
       0.03323237 0.071511984 0.12232532 0.043856993
000020 a8 eb ac 3d 51 64 5a bc 8c aa f4 bc df 20 4d be
       0.08443385 -0.013329581 -0.02986648 -0.2003207
000030 d0 9e c5 be e6 fc 95 3d 4e a3 ee 3d 4d 4a 99 bb
       -0.38597727 0.07323627 0.11652242 -0.004678047
000040 eb b1 ef 3c 3f c7 d1 bc 01 c0 81 bb 2a c4 21 3d
       0.029259643 -0.025607703 -0.003959656 0.039493717
000050 97 1e 68 bd b7 4b 7d bc 1f 2e 3a 3e 87 64 ac 3d
       -0.056669798 -0.015459946 0.18181656 0.084176116
000060 52 b1 08 3b 7c 10 04 3e d5 30 79 bd 34 b1 62 3d
       0.0020857644 0.12896913 -0.060837585 0.055344775
000070 31 17 1d 3d 07 66 ac 3c 06 a5 ac 3d 27 80 b9 3d
       0.038352195 0.021044744 0.08429913 0.09057646
000080 94 a6 b3 3b d0 6f b2 3d 4b 99 c5 3b 98 e7 b0 ba
       0.005482504 0.08712733 0.006030237 -0.0013496755
000090 0c 48 aa 3d f8 c3 b2 bd 5f 32 9f bd 5a 44 cd 3d
       0.08314523 -0.08728784 -0.077732794 0.10022803
0000a0 32 f5 45 3c d4 a2 03 be ab 6b 22 3d ac c1 5b bd
       0.012082385 -0.12855083 0.03965346 -0.053651497
0000b0 cc b4 47 3d bd 48 18 bd 23 d1 9e 3d 5e c0 5c 3d
       0.048756406 -0.037178744 0.077547334 0.053894393
0000c0 43 19 0c bd ce 20 58 bc 8f 63 c5 bd d3 f9 e3 3d
       -0.03420378 -0.013191415 -0.0963813 0.111316346
0000d0 f5 d8 5f bd 0a 20 b4 bc a1 d1 ca 3d 8c e1 c5 3d
       -0.054650266 -0.021987934 0.09903265 0.0966216
0000e0 9d 90 78 be c8 ce 3f bd e5 5a ce 3d 30 c6 94 bd
       -0.24273916 -0.04682806 0.100759305 -0.07264364
0000f0 ea 87 90 bc 54 8c 8b bc e2 b3 4a 3d 2a 95 c9 bc
       -0.017642934 -0.017034687 0.049487956 -0.02460726
000100 14 e7 ae bc 83 cf 8e 3c df 13 53 bd 7c 56 87 be
       -0.021350421 0.017432934 -0.051532622 -0.2643317
000110 05 0c 63 3d 53 c4 95 bc d9 dd ea 3d 44 b8 e6 3d
       0.055431385 -0.018282091 0.11468095 0.11265615
000120 b0 6a 3b be 08 a5 a2 3a 8e 71 28 bd 0d 8c 8d ba
       -0.18302417 0.0012408802 -0.04112392 -0.0010799185
000130 4c 7f 9b 3d 62 98 2f 3c bc c0 89 bd 50 f1 8a 3d
       0.07592639 0.010717483 -0.06726214 0.06784308
000140 c1 84 52 3d 05 b6 28 3d 08 28 c1 3d f2 8f e6 3d
       0.051396135 0.041189212 0.094314635 0.11257924
000150 11 28 73 3c f2 ad b9 3d 78 27 d8 3d d2 b6 3b bc
       0.014841096 0.090663806 0.10554403 -0.011457162
000160 34 1c a5 3d 2d 35 56 be 8c 42 ba 3d ca e2 32 3d
       0.0806202 -0.20918722 0.09094724 0.043673314
000170 68 54 9d 3d f0 6e 1e bb c1 0f 95 3d ca 87 13 bd
       0.07682115 -0.002417501 0.072783954 -0.03601817
000180 7c 13 b0 3d 05 3c ba bc 56 16 e9 3c ce 1e cd 3d
       0.08597466 -0.022733698 0.028453033 0.10015641
000190 55 0d ae 3d a7 69 64 3b 9c 20 dc bb 38 be 92 3d
       0.08498637 0.0034853013 -0.0067177545 0.071651876
0001a0 3d 88 f4 b9 a3 1f 97 bd f6 f6 b3 3d a7 48 7b 3d
       -0.00046640812 -0.07379081 0.087873384 0.061348584
0001b0 29 a8 e1 3c 27 86 ac bd 14 bb d0 3d 14 3d 25 bd
       0.027546005 -0.08424025 0.10191932 -0.04034145
0001c0 19 1c 83 bd 79 23 92 3d 93 76 0d 3b 24 ed af 3a
       -0.064018436 0.07135672 0.0021585568 0.0013422114
0001d0 8b 49 fc 3d 0b 61 8c be 66 9a d6 3c 9b 85 95 3d
       0.12318715 -0.27417788 0.02619667 0.07300874
0001e0 a9 53 ef bc f6 b4 83 bd 73 91 50 bc 22 97 35 bd
       -0.029214697 -0.06431 -0.01272999 -0.044333585
0001f0 17 80 8c 3d 21 8f 79 3d 39 a9 b4 3d e6 02 98 3d
       0.06860369 0.060927514 0.08821339 0.07422428
000200 fa 4f d4 3b ce 22 95 bc 71 cd 3e 3e dd d5 0d 3d
       0.0064792605 -0.018205073 0.18633057 0.034627784
000210 40 6f 58 3c 10 af 11 bd fa fc 30 3e fb 7d e9 3b
       0.013210118 -0.035567343 0.17284003 0.0071256137
000220 21 5f 4e 3d 39 9b 4a 3d 27 1b 10 bd 8a bf a1 be
       0.05038369 0.049464438 -0.035182144 -0.31591445
000230 1a 58 d3 be df 91 7d 3c 12 54 c2 3d 43 49 8d 3d
       -0.41278154 0.015476673 0.094886914 0.06898739
000240 74 09 51 3d 48 de a9 bd b5 d7 12 3d 38 fd 39 bd
       0.051034406 -0.0829435 0.035850246 -0.045407504
000250 d0 b9 85 3d af ef b4 bc f2 3f 6c 3e ac 73 aa bc
       0.065295815 -0.022086946 0.23071268 -0.02080711
000260 c7 02 92 bc 6d c2 64 3c c3 d8 86 bd b5 a5 cd 3d
       -0.01782359 0.01396237 -0.06584313 0.10041372
000270 f2 93 25 3d 77 ec 9c 3d bf 07 0a 3e 9a 59 da 3d
       0.040424295 0.076622896 0.13479517 0.106616214
000280 10 c2 e2 bc 9d f5 b1 3d 38 74 3f 3d 23 6b 65 bd
       -0.027680427 0.08689425 0.046741694 -0.056010377
000290 aa 81 0a 3d 0a da 4f bd 57 cc ea 3c d3 c1 05 3d
       0.033815064 -0.050745048 0.02866189 0.03265555
0002a0 8f 21 cd 3d a1 a7 24 bd 8f 79 7c 3d 41 6b d3 3d
       0.100161664 -0.040198926 0.061639365 0.103231914
0002b0 51 df 05 3e 2d f1 bc 3d c7 98 d8 3d ce cf ab bc
       0.1307347 0.09225688 0.10576015 -0.020973112
0002c0 ce 85 2b 3d bc 50 e2 3d 11 52 c8 be b4 a9 d7 3d
       0.041875653 0.11050555 -0.39125112 0.10530415
0002d0 5f b2 0c 3e 60 80 61 3d bd 67 13 3d ba 87 0f 3d
       0.13739918 0.05505407 0.035987604 0.03504155
0002e0 8a f6 f8 bd 9e 06 a0 3d df 77 54 ba e2 32 28 3c
       -0.121563986 0.07813762 -0.00081050204 0.010266038
0002f0 bb e0 2d bd 73 ce f3 3d d8 1c 0d 3d d8 e2 d2 bc
       -0.042450648 0.119046114 0.034451336 -0.025742933
000300 1d f0 16 be 53 7a ff 3d 45 6d de bc 99 98 84 ba
       -0.14740033 0.12474503 -0.027151713 -0.0010116278
000310 29 82 04 3e e6 25 94 3d 91 94 14 3a 30 65 0e 3d
       0.12940277 0.07233791 0.000566789 0.03476447
000320 42 e4 9d be c6 24 36 3d f6 05 f2 bc fd d3 59 bc
       -0.3083821 0.044468664 -0.029543858 -0.013295171
000330 72 70 14 bd e3 00 ec 3d 3c 5b 8c bc 37 b5 68 3d
       -0.03624005 0.11523607 -0.017133348 0.056813445
000340 75 f9 fe 3d 11 5f 75 3d 9a 1c 90 3d 82 7a 5e 3d
       0.12449924 0.059905116 0.07036705 0.05431605
000350 ab 08 e9 3d a9 90 00 bb 9f 68 bf 3d 38 82 2a bc
       0.113786064 -0.0019617474 0.09346127 -0.010407023
000360 05 6e 0e 3e 1f ad a2 bd c9 3d 36 bd 63 4f 42 3d
       0.13909157 -0.079431765 -0.044492517 0.04743899
000370 c8 40 56 3d 20 5d 85 bc b2 42 80 bd a2 a2 98 3b
       0.052307874 -0.016279757 -0.06262721 0.004658059
000380 4a ea bb 3c 4d f6 ba bd 64 6a a6 3d 07 93 55 3d
       0.022938866 -0.091290094 0.08125761 0.05214217
000390 42 d5 c2 3d 58 23 52 3d 6c f9 00 bd 21 17 68 3c
       0.09513332 0.051303238 -0.031487867 0.014165671
0003a0 cd 8c a0 3d c5 89 56 bd 66 81 bb 3d 17 25 88 3d
       0.078393556 -0.05237748 0.0915554 0.06647699
0003b0 f0 78 1d bd e7 a9 8f be dd bc 99 bb 3c 3f 32 3c
       -0.038445413 -0.28059313 -0.0046917037 0.010879334
0003c0 ec b7 9d 3d bf 76 f2 3c de 7a 96 bd 9c 6c c3 3c
       0.07701096 0.029597638 -0.07347654 0.0238555
0003d0 3b ae e1 3d d9 9f d6 be 19 35 57 3d 11 87 31 3d
       0.1101956 -0.4191883 0.052540872 0.0433417
0003e0 83 77 bf 3d 9f 52 ef bd 59 51 ee 3c a5 55 44 bc
       0.09348967 -0.116856806 0.029091524 -0.01198331
0003f0 97 6d 61 3d ca 7f a1 bd c6 fd 9c 3d 1c 55 91 bc
       0.055036154 -0.07885702 0.07665591 -0.017740779

fc3.bias f4 [128]
000000 01 23 c9 bd 14 41 12 be c9 97 bd bc 7d 9a 77 bd
       -0.098211296 -0.14282638 -0.023143666 -0.060450066
000010 af 82 27 be 2e bb 8d bd 18 df 5e 3d 46 0a 96 bd
       -0.16358446 -0.06920467 0.054411978 -0.07326178
000020 d9 26 94 3e 24 c4 81 bb 38 74 60 bd fc 62 98 bd
       0.28935888 -0.0039601494 -0.054798335 -0.07440755
000030 61 10 c0 3e 31 6b b3 bd ae 92 8e bd 83 ed c2 bc
       0.37512496 -0.087606795 -0.06961571 -0.023794895
000040 4e f3 d2 3e fd a0 c6 bd 3f 79 97 3e a4 38 8f bd
       0.41201252 -0.09698675 0.2958469 -0.06993225
000050 1b 44 81 bc 4d 0c 35 be 78 6a 92 bd 87 6b 26 bd
       -0.015779546 -0.17680474 -0.071492136 -0.04062989
000060 5a d3 cb 3e cb 40 51 3d fc 48 56 bd 69 f1 82 3e
       0.39809686 0.051087182 -0.052315697 0.25574806
000070 07 cd 85 bd 8d 00 13 bb d1 65 37 be 50 d6 44 3c
       -0.065332465 -0.0022430748 -0.17909934 0.012013987
000080 75 1b 50 3e 95 40 f7 bd 3d ca db 3b 26 c7 3a bd
       0.20322974 -0.12072865 0.0067074583 -0.04560008
000090 42 eb c0 3e 2c 3f b2 bd 0f cd c4 bd 60 89 93 3e
       0.37679487 -0.08703455 -0.09609424 0.28815746
0000a0 c5 af 9e bc 2a c9 b9 3c 03 0c 11 be 71 aa 8d bc
       -0.019370923 0.02267893 -0.14164738 -0.017293187
0000b0 2f 05 97 3e 39 b6 9c 3e 51 0a 15 bd 44 3e 4f 3b
       0.29496142 0.30607775 -0.03638679 0.0031622807
0000c0 0c a3 b9 3e 95 22 17 be b6 bf 0b be 74 58 f4 bc
       0.36257207 -0.14759286 -0.1364735 -0.029827334
0000d0 f4 a9 f9 bd e0 79 b0 bd ae af 7a bc e8 31 d2 3a
       -0.12190619 -0.08616996 -0.015300674 0.0016036602
0000e0 06 68 91 bc 07 51 02 be 50 f5 b8 3e 5a df 13 be
       -0.017749798 -0.12726222 0.3612466 -0.1444067
0000f0 24 ff ab bd 8d b2 95 3e d6 25 04 be dd 16 db bd
       -0.083982736 0.29237786 -0.12905058 -0.1069772
000100 64 eb bc bc d6 87 f7 bd 08 3a 16 3e 5f d3 c4 bb
       -0.023061462 -0.120864555 0.14670575 -0.0060066427
000110 b7 aa 8f bd 14 d6 aa 3e b0 1e 27 bd d0 2d 29 3c
       -0.07014983 0.33366454 -0.04080075 0.010325864
000120 f3 26 88 bd 0e bf 18 bd bd 46 b9 bd c4 7b ea 3c
       -0.06648054 -0.03729158 -0.090466954 0.02862347
000130 45 e0 7f bc da 08 51 be b1 33 e2 bd 2c 35 79 3e
       -0.015617435 -0.20413533 -0.110450156 0.2433669
000140 f6 1e 04 be 2b f2 34 bd d9 99 4d be b7 43 3a bd
       -0.12902436 -0.044176262 -0.2007822 -0.045474734
000150 cf cb ed bd a8 8a b8 3c 8b 0c bb bc 43 1a 18 be
       -0.11611139 0.022527054 -0.02283313 -0.14853768
000160 22 ab aa 3e 5e 88 69 bd 2a 8f a4 bc 1c 0c 48 3e
       0.3333369 -0.057014816 -0.020087797 0.1953587
000170 18 50 95 bc 06 fd 85 bd b0 f9 07 be e0 ee 9c bd
       -0.018226668 -0.06542401 -0.13278842 -0.07662749
000180 f2 ec 19 bd 99 01 63 bd db 6c 85 bd 76 27 3e bd
       -0.037579484 -0.055421446 -0.06514903 -0.04642435
000190 98 db 02 be 36 b5 04 be da 97 b6 bb ed f3 c8 3e
       -0.12779081 -0.12959751 -0.0055723013 0.392486
0001a0 bd 6a b0 3e 76 6e 34 be 4f 8b 88 bd 72 08 12 bd
       0.34456435 -0.17620263 -0.06667196 -0.035652585
0001b0 38 1a 03 bd 57 89 21 be 5e f9 18 3d bd 8c eb bd
       -0.032007426 -0.15775047 0.03734719 -0.11501453
0001c0 6e fd 58 3d a1 55 33 bd 9e ed 18 be 90 01 9b bd
       0.052976064 -0.043782834 -0.14934394 -0.075686574
0001d0 45 0e ac bd af e8 50 3c 0c e5 8e 3c f1 c1 fd 3b
       -0.08401159 0.012750789 0.017443202 0.007744067
0001e0 2d cb d3 3c ed b6 08 3c 44 b6 99 bd be f2 0d bc
       0.025853718 0.008344394 -0.075054675 -0.008663831
0001f0 be cd a7 3e 50 3e 91 3e 92 58 53 3d 0a e8 5e be
       0.32774156 0.28367853 0.05159814 -0.21768203

agent_heads.0.weight f4 [5, 128]
000000 3c 71 d4 3d e0 b2 92 3d 72 24 16 3e da 00 11 bc
       0.1037316 0.07163024 0.1466234 -0.008850301
000010 1c 9a 1a 3d 9f d0 42 3d 87 59 f5 3c 20 a9 75 3c
       0.037744626 0.047562238 0.029949917 0.014993936
000020 90 c7 33 bd a9 99 1e 3d a4 d0 e9 bb a7 e2 3b 3e
       -0.04389149 0.03872076 -0.0071354676 0.1834818
000030 f4 2d a5 be ec 4b e0 3d c3 5d 6d 3d 1c 5b 63 bd
       -0.32261622 0.10951981 0.057950746 -0.05550681
000040 62 17 ed bd 99 53 03 3e 27 3e 58 be 72 9b 71 3d
       -0.115767255 0.12824859 -0.21117459 0.058986135
000050 95 47 78 bc 2e 4b eb 3c 1b 86 68 bd 3b 7c 29 3e
       -0.015153785 0.028722372 -0.056768518 0.16551296
000060 a8 c2 97 be 07 5a a7 3d 6c 64 a3 bd 7b ed d2 b9
       -0.29640698 0.08171468 -0.07978138 -0.00040231258
000070 8d bf 48 bd 92 4d e5 3d e0 42 2d 3d 91 6d e1 3d
       -0.049010802 0.11196436 0.042300105 0.11007226
000080 82 c1 a4 bd a3 6f 4d 3d 32 ff e2 3d fe 2c ac 3d
       -0.08044721 0.050155293 0.11083831 0.08407019
000090 1b ec 93 bd 83 7d 2d 3e ea 91 2c 3d 68 06 2c be
       -0.07222768 0.1694241 0.042131342 -0.16799319
0000a0 ef c8 21 3e c5 23 18 bc 60 84 39 3e 8d 9d 11 bd
       0.15799306 -0.009285872 0.18116903 -0.035550643
0000b0 9a 7c 41 be 07 d2 47 be 38 42 63 3d 07 0e 7f 3d
       -0.18895188 -0.19513713 0.055483073 0.062269237
0000c0 e5 61 e5 bd 7b 78 b8 3d b3 3c 99 3d c9 9b 01 3e
       -0.112003125 0.09007355 0.074822806 0.12657084
0000d0 a6 f0 8c 3c fb d1 6d 3d 40 eb eb bc bf 63 b9 3d
       0.017204594 0.05806158 -0.0287987 0.09052228
0000e0 54 fe e4 3b f6 b8 8e 3d 58 42 39 be 80 8c d0 3d
       0.006988326 0.06968872 -0.18091714 0.10183048
0000f0 06 14 a3 3d ac b0 dc bd c7 2d 0f 3e ec 85 00 3e
       0.079628035 -0.10775885 0.13982306 0.12551087
000100 c6 e9 f3 3d b1 2c e8 3c 79 70 ae 3d 63 4b fa 3d
       0.11909823 0.028341623 0.08517546 0.1222141
000110 c5 48 98 bd 21 b7 4f be 1c 35 e5 3c 76 c0 f7 3d
       -0.07435755 -0.20284702 0.027979426 0.12097256
000120 07 36 46 bd 6c 3b 63 3c dd 52 ec 3d 14 05 86 3d
       -0.04839137 0.013869148 0.115392424 0.06543937
000130 57 61 4a 3c 5d 37 31 3b 84 11 a6 3d 9c d7 03 be
       0.012352309 0.0027041056 0.081088096 -0.12875217
000140 20 f6 a9 3a 2a ca 12 3e 49 6e 04 3d e5 31 26 3d
       0.0012967028 0.14334932 0.03233174 0.040574927
000150 d4 23 7d 3d 66 75 29 bd 3d 36 25 3e cb 80 0f 3d
       0.061801746 -0.041371725 0.16133972 0.035034936
000160 96 6b 11 be 42 6e d7 3d ed 5e 60 3d 37 4e 5c be
       -0.14201197 0.10519077 0.05477803 -0.21514212
000170 cc 16 89 3d 43 97 6b 3c 4b ee 2b 3d be ab c7 3d
       0.06693801 0.014379325 0.0419753 0.09749554
000180 74 d4 b3 3d 34 3a 6c 3d b9 11 9a 3d e6 05 06 3e
       0.087807566 0.057672694 0.075229116 0.13088188
000190 cb ec 9d 3d fc 01 24 3c 74 d4 0f 3e bc 15 43 be
       0.0771118 0.010010239 0.14045888 -0.1905126
0001a0 ff d9 1c be c1 1d 24 3e 68 c1 06 bd dd ff 13 bd
       -0.15317534 0.16026975 -0.03289929 -0.036132682
0001b0 c3 d1 e6 3d 30 25 7e 3c d1 7e 90 3d a1 c3 c9 3c
       0.112704776 0.015511796 0.07055438 0.024629416
0001c0 95 8c 72 b9 49 4e 4c 3e 78 be 1c 3e 0d fa 8e bd
       -0.0002313129 0.19951738 0.15307033 -0.06981287
0001d0 b0 dc 1d bd 8f f5 22 3e 3c 5c cb 3d 69 e7 e6 bb
       -0.038540542 0.15913986 0.09929702 -0.007046629
0001e0 b5 ad 17 3a 36 6d 4d 3d 61 e5 c1 3d b9 51 5d 3d
       0.0005786077 0.05015298 0.09467579 0.054033015
0001f0 8f 32 e1 bd 9a cf 40 be 82 c2 17 bc 33 76 52 3d
       -0.109959714 -0.18829194 -0.009262683 0.051382255
000200 e0 99 21 3e 48 fc 02 3e 02 8c fc 3c a4 ef ac 3d
       0.15781355 0.1279155 0.03082848 0.08444145
000210 d7 5a 58 3d 55 79 49 3d a5 aa aa bb 17 db ed 3d
       0.052821007 0.049187977 -0.0052083307 0.11614054
000220 24 05 1a be 08 f2 aa 3d 0c 9f 20 3d 6b 13 08 3e
       -0.15041023 0.08346945 0.03921418 0.13288657
000230 29 f5 82 be 11 d8 a7 3d 66 1f 53 3c 1b 43 89 bd
       -0.25577667 0.08195508 0.012885904 -0.067022525
000240 9f 16 6f be d7 c9 b6 3d 22 cb 71 be 65 c0 98 3c
       -0.23348473 0.08925217 -0.23612645 0.018646428
000250 0a 86 d1 3d 16 19 2d bc c4 37 9a bd f4 9f 30 3c
       0.10230644 -0.010565063 -0.07530168 0.010780323
000260 ee 3c 79 be 4e 15 2b 3d ef a7 d3 bc f6 4a 07 3e
       -0.24339649 0.041768365 -0.025836913 0.13212189
000270 6d 30 b7 bc f5 29 e2 3d f4 d9 33 3e 6f a2 aa 3d
       -0.022361958 0.11043159 0.17563611 0.08331763
000280 71 bd 3f be 10 8a 9c 3c 2d 6c 98 bc 89 c2 5a 3d
       -0.1872461 0.019108802 -0.01860627 0.05340818
000290 36 5d 86 bd 8e 4d 53 3d 13 84 1c 3e 84 ad 2a be
       -0.06560747 0.051587634 0.15284757 -0.16667753
0002a0 ee 03 7e 3d 14 06 23 bd 15 a9 30 3e 7d d0 f0 bc
       0.062015466 -0.03980072 0.17252 -0.02939629
0002b0 82 e1 5e be d0 f6 76 be a9 a3 6c 3d 3d 24 99 bd
       -0.21765712 -0.24117589 0.057773266 -0.07477615
0002c0 9a fb ab bd 92 eb 37 bb 31 ca d3 3d f4 b9 c1 3d
       -0.083975986 -0.0028063995 0.10341299 0.09459296
0002d0 68 ce 43 bc 86 ac 94 bc 88 07 76 bd 5c 8a d9 3d
       -0.011951067 -0.018148672 -0.060065776 0.10622093
0002e0 1c 00 cc 3d 37 a9 00 3c 83 8b ee bd 14 a2 a0 3d
       0.09960958 0.007852844 -0.116477035 0.07843414
0002f0 0b 68 d9 bb 5c 68 09 be f3 85 75 3d 05 78 03 3e
       -0.0066347173 -0.13418716 0.059942197 0.12838753
000300 28 9b 02 3e ad bc 31 3e 46 95 64 3e 82 71 45 3c
       0.127545 0.1735713 0.22322568 0.012050988
000310 c2 d1 3c bd 02 cf 47 be 8a e3 7c 3d 6b 00 83 3d
       -0.04609848 -0.19512561 0.061740436 0.06396564
000320 55 e1 7f bd c0 b8 27 3e 5e d5 ed bb 60 64 20 3e
       -0.062470753 0.1637907 -0.0072581014 0.1566329
000330 90 ce ca 3d 4b fa f8 3d 08 bc 23 3e 31 c0 b3 bd
       0.0990268 0.121571146 0.15989697 -0.08776892
000340 62 67 8a b8 00 46 96 3d fb 44 a8 3d 45 0d b4 3d
       -6.599609e-05 0.0733757 0.08216282 0.087915935
000350 2b 7c 48 3d bb 07 ef bb 01 ce a1 3d 82 71 19 3d
       0.04894654 -0.0072946227 0.0790062 0.037461765
000360 d0 58 25 be a6 49 f7 bc 3a 28 99 3c 72 5a 7c be
       -0.1614716 -0.030186485 0.01869594 -0.24643877
000370 e7 34 1d 3e 6f 27 16 3e 0b 8b 5d 3c 7c 79 c9 3d
       0.15352212 0.1466348 0.01352192 0.098376244
000380 d4 2c b8 3c 26 45 97 3d ed ca 02 3e c7 e2 a6 3d
       0.022482313 0.07386236 0.12772723 0.08148723
000390 00 14 5c 3c 5c 0e 10 3d b9 2b 2c 3d 54 50 b4 bd
       0.013432503 0.035169944 0.042033885 -0.08804384
0003a0 70 a5 12 be 46 2d 9c 3d f0 98 41 bd a0 e1 a2 bd
       -0.14320922 0.07625823 -0.047264993 -0.07953191
0003b0 80 2c 67 3d a5 12 e0 3d 3f 85 0e 3e c1 ce d5 3d
       0.056438923 0.10941056 0.13918017 0.10439826
0003c0 6d da 97 bd 3c 79 67 3d 19 87 6b 3d 45 c9 b1 3d
       -0.07414708 0.056512102 0.057501886 0.08680967
0003d0 86 74 6f 3c 5d 02 d8 3d b2 8a 1f 3e b8 83 26 3e
       0.014615184 0.10547326 0.15580252 0.16261184
0003e0 4c d4 b2 3d e9 d5 a1 3d e5 43 25 3e 54 62 ea 3d
       0.08731899 0.07902128 0.16139181 0.11444536
0003f0 dc e6 20 be c7 a5 0b be 5c eb 74 3d db 4e 07 3e
       -0.15713066 -0.13637458 0.05979477 0.13213675

agent_heads.0.bias f4 [5]
000000 68 1e 05 be 1e 3c 91 bd 11 a9 41 be 2f 91 88 be
       -0.1299988 -0.070915446 -0.1891215 -0.26673266
000010 7f 17 08 bd
       -0.033225533

agent_heads.1.weight f4 [5, 128]
000000 d2 7c 22 3e a0 0b 25 3e b1 75 af 3d 3d d1 a0 3d
       0.15867928 0.16117716 0.0856737 0.07852409
000010 52 24 16 3e 65 eb 8d bd d8 db 83 bd b1 ab 1b 3d
       0.14662293 -0.069296636 -0.06438416 0.038005535
000020 68 2a a4 bd d8 7d 8c bd 40 c3 f2 bc 20 7c 2e 3e
       -0.08015901 -0.0685994 -0.029634118 0.17039537
000030 41 21 82 be e8 72 25 3e 61 fd 63 bd 3a 3a 89 bd
       -0.25415996 0.16157115 -0.055661563 -0.06700559
000040 f5 28 69 be 78 9e d7 3d 73 0a 5a be 03 50 b2 3d
       -0.2276953 0.105282724 -0.21293049 0.08706667
000050 f6 12 d3 bb fe fc 00 3e f9 e5 30 3d 46 32 8e bc
       -0.0064414693 0.12596509 0.04318807 -0.017357957
000060 d0 b7 86 be 27 4c 09 bd da ca cb bb fb 01 6a 3d
       -0.26312113 -0.03351989 -0.00621925 0.057130795
000070 4b 1e 7e 3d f1 ec d2 bc 19 e6 a6 3d d2 fa e0 3d
       0.06204061 -0.025747748 0.081493564 0.1098534
000080 24 6d a0 bd 79 64 a2 3d 7b 64 bc 3d af 23 f9 bc
       -0.07833317 0.0792932 0.09198853 -0.030412523
000090 fa 1f c3 bd a0 e0 6a 3b 33 55 ac 3d 63 bf 10 be
       -0.095275834 0.0035839453 0.08414688 -0.14135508
0000a0 0f 1b a1 3d 40 e6 89 3c e8 a6 2d 3d ec 2b 5c 3d
       0.07866489 0.016833425 0.042395502 0.053752825
0000b0 0f e4 01 be a2 c4 67 be 15 fa 53 bc b7 17 6c 3d
       -0.12684654 -0.22633603 -0.012938042 0.057639804
0000c0 43 dc e7 bd 9e 99 44 3e d1 e5 c6 3d b7 dd bc 3b
       -0.113213085 0.19199225 0.09711803 0.005763735
0000d0 fb 0e 25 3e 6a af 18 3e 9c d4 73 bd cd 3f af 3d
       0.16118996 0.14910665 -0.059528932 0.08557091
0000e0 c4 46 df bc d3 67 e9 3c b5 d6 0d be f2 d2 18 3e
       -0.027255423 0.02849189 -0.13851435 0.14924219
0000f0 97 82 2a 3e 92 e0 3c be 15 fb 29 3e 0f cc 10 3e
       0.16651379 -0.18445042 0.16599686 0.14140342
000100 19 fa 65 3d 1e 83 54 3d 5d 30 8f 3c 21 2c 0d 3d
       0.056146715 0.051882856 0.017479116 0.034465913
000110 82 38 9f bc 00 e6 4c be 2d 7c 4c 3d 18 8b b3 3d
       -0.019436125 -0.20009613 0.04992311 0.087667644
000120 d4 29 df 3c b5 da 8c 3d 1e 59 eb 3d 77 15 35 3d
       0.027241625 0.068776526 0.11491607 0.044209924
000130 c7 79 7e bc 6c ac 1d 3e 62 10 f7 3c 5f 2b 1d be
       -0.015531964 0.15397805 0.03015918 -0.15348576
000140 a7 a4 22 3e da aa ae bc 14 bd b9 3d 97 ab f8 3d
       0.15883122 -0.021321703 0.09069267 0.12142103
000150 99 72 2f 3d fb 19 3a bc fb 3e 23 3e e1 05 0d 3e
       0.0428339 -0.011358733 0.15941994 0.13771774
000160 39 72 a0 bd 36 40 ad 3d d8 1c 24 3e 9c fb 2c be
       -0.07834286 0.08459513 0.16026628 -0.16892856
000170 5c d4 e9 3c 9c 3e ac bc eb 4b 78 3d 1e 21 58 3d
       0.028543644 -0.021025948 0.060619276 0.052765958
000180 d6 e0 d7 bc b0 0f 7f 3d e8 7f 93 3d 3f 3c 97 3a
       -0.026352327 0.06227082 0.072021306 0.001153834
000190 50 b0 84 3d 87 22 c6 3d 6d 21 de 3d ad ff 32 be
       0.064789414 0.09674554 0.10846219 -0.17480345
0001a0 c9 1e 22 be f4 e6 82 3d c9 34 94 bb 0c cb 9c bd
       -0.15832056 0.06391707 -0.004522894 -0.076559156
0001b0 af 56 84 3b 74 ec 20 3e ce e5 bb 3d a3 81 82 3d
       0.004038654 0.157152 0.09174691 0.063723825
0001c0 15 b5 7a bc 9c 94 36 3d 0f a6 4e 3d 42 b6 3d bc
       -0.015301962 0.04457532 0.050451335 -0.011579098
0001d0 e2 05 91 bd dd a1 0f 3e ce e3 00 3e 53 6b 1e 3c
       -0.070812 0.1402659 0.125869 0.009669143
0001e0 f1 6a fb 3c a5 91 c9 3d f9 35 84 3d 57 3b 99 3c
       0.030690642 0.098422326 0.06455607 0.018705053
0001f0 52 f9 5b be 3c 7d 3d be 01 e3 14 bd fe 46 04 3e
       -0.21481827 -0.18504804 -0.0363493 0.12917706
000200 76 53 46 3d c5 82 9c 3d 26 ef 9e b9 1d c6 3f bd
       0.04841944 0.0764213 -0.00030314288 -0.046819795
000210 8a 31 96 3c 8f 27 8f bd ac ea 02 bd 76 95 9c 3c
       0.018334169 -0.06989967 -0.03196208 0.019114237
000220 8d 53 4b be 95 10 70 3d ca 22 a0 3c 13 42 2e 3e
       -0.19856091 0.058609564 0.019547839 0.17017393
000230 60 ec 88 be f3 33 1d 3d eb 4c 53 bd 74 f3 8c 3c
       -0.2674284 0.03837962 -0.051587027 0.017205931
000240 b0 20 86 be 59 8b 25 3e c2 d9 26 be 1a 8c bb 3c
       -0.26196814 0.16166438 -0.16294006 0.022893954
000250 25 4f c1 3d c1 8a 09 3e 26 d9 ce 3b 05 55 22 3e
       0.09438924 0.13431837 0.006312507 0.15852745
000260 45 60 7d be 1c 8e 88 bd 35 0f 82 3d 95 d0 ce 3d
       -0.24743755 -0.0666773 0.06350557 0.100983776
000270 cc 5b 03 bd 35 6a 67 3e 3d c2 ff 3d f1 2b fe 3d
       -0.032069966 0.22599109 0.1248822 0.12410725
000280 90 e2 43 bd 90 c6 b2 3d 22 0c 45 bc 9f 16 9a 3d
       -0.04782349 0.08729279 -0.0120268185 0.07523846
000290 6f f6 4e be 21 e1 8b 3d c0 4d 12 3e 0b 54 76 be
       -0.20211194 0.06830049 0.14287472 -0.24055497
0002a0 53 93 e9 3c 23 12 9c bd 14 c5 1d 3e 61 e5 98 bd
       0.028512632 -0.07620647 0.1540721 -0.074656256
0002b0 3c 24 cd bd fb bf 4b be 3c 8d b5 3c fc a1 99 bb
       -0.10016677 -0.19897453 0.022162072 -0.0046884995
0002c0 8f 97 37 be a1 89 3f 3d b6 28 e1 3d 54 92 27 bd
       -0.17928909 0.046762113 0.10994093 -0.040911034
0002d0 9d 31 ed 3d 11 e2 f7 3d 8e fd 2e 3d b3 16 9a 3d
       0.115817286 0.121036656 0.042722277 0.07523861
0002e0 ec 21 d9 bb af fc a3 3d 59 a0 f0 bd 6d 4c 28 3d
       -0.0066263583 0.0800718 -0.11749334 0.04108851
0002f0 75 f9 3d 3d 47 45 51 bd 08 02 6e 3d ad b3 b7 bc
       0.04638048 -0.05109146 0.058107406 -0.022424543
000300 6d 18 c3 3d 53 2a eb 3d 04 84 32 3e 61 4f 43 bc
       0.09526143 0.11482682 0.17433172 -0.011920781
000310 b1 e4 8d 3c c5 49 2f be 89 90 f8 bc 21 f9 30 3d
       0.017320963 -0.17117985 -0.030342357 0.043206338
000320 8d b9 78 bc bc 88 0b 3e fc 95 ec 3d e3 8a 3c 3e
       -0.0151809575 0.13626379 0.11552045 0.18412356
000330 f0 46 33 3d 95 53 95 3d 26 42 27 3e e7 43 1d be
       0.043768823 0.07291333 0.16333827 -0.15357934
000340 87 62 0c 3e 91 3e ca 3c 82 db 45 3d 8e 36 b7 bb
       0.1370946 0.024688037 0.048305042 -0.00559122
000350 39 9a 1c 3e 6f 39 02 bb 40 0b fb 3d 59 b7 fe bb
       0.15293206 -0.001987066 0.12258005 -0.0077733216
000360 9d 55 27 be b3 57 93 3d ce 56 0f 3e 45 1d e4 bd
       -0.16341253 0.07194462 0.13997957 -0.11138395
000370 a5 47 0f 3e 26 bc cd 3d fe 51 9c 3d c6 ff e2 3d
       0.13992174 0.10045652 0.07632826 0.11083941
000380 1d 97 04 bc 8f c8 06 3c 91 29 a7 3d e1 fc 8f 3c
       -0.008092669 0.008226528 0.08162225 0.017576637
000390 5d 86 3a 3d 68 a8 3b bd 40 96 00 3e 19 35 23 be
       0.045538295 -0.0458149 0.12557316 -0.15938224
0003a0 43 47 7e bd b6 fe 44 3e ee be c4 bc 70 66 a4 3d
       -0.06207968 0.1923779 -0.024016824 0.08027351
0003b0 d5 1c 28 3e db 0b 22 3d 6a dc 8c 3d df b9 b9 3d
       0.16417249 0.039562088 0.06877978 0.09068655
0003c0 d6 b9 a0 bd 76 dd 01 3e 5b 64 41 bc 0d eb 73 bd
       -0.078479454 0.12682137 -0.011803712 -0.059550334
0003d0 e5 ad 36 3d 42 fe e0 3c 46 8b 5b 3e 93 af a9 3d
       0.044599432 0.02746499 0.21439847 0.08285441
0003e0 88 b3 af 3d 9f 5b 01 3e 99 80 9c 3c bd 08 ae 3c
       0.08579165 0.12632607 0.019104289 0.021244401
0003f0 aa ec 67 be a4 6e 20 be 8a b6 83 bd 24 52 4d 3c
       -0.22648874 -0.15667206 -0.06431301 0.012531791

agent_heads.1.bias f4 [5]
000000 d0 40 79 be 92 3f 29 be 02 4c d9 bd e8 64 b1 bc
       -0.2434113 -0.16528156 -0.106102005 -0.021654561
000010 25 84 bc bd
       -0.09204892
